src/model.pth (torch, 17216 bytes, 4 tensors)

linear1.weight f4 [256, 11]
-0.31177196 -0.31124458 0.03460212 0.006671665 -0.10239654 0.10989098 -0.11529124 0.25176895
0.22155358 -0.036628824 0.1284435 -0.045425747 -0.19591422 0.18813983 -0.10677914 -0.22323222
0.11896707 0.018379828 -0.13073839 -0.1040049 0.09268357 -0.21413065 0.25721005 0.11602198
-0.00030972043 0.23897249 0.01367579 -0.020890944 0.008484766 -0.11128323 0.005672964 -0.05128153
-0.25627187 -0.08148061 -0.14356887 0.28166878 -0.27376652 0.11766723 -0.028673982 -0.04765241
-0.17552848 0.13850461 0.22075264 -0.101195596 0.036127053 0.07063816 0.093193226 0.15619639
-0.112671815 -0.28715056 0.030625742 -0.23515253 -0.036727093 0.16543762 -0.11956952 -0.30235216
0.0972945 0.0463102 0.16830055 0.2536695 -0.13574521 -0.18859202 0.108074024 -0.14507124
0.29060242 -0.14908512 0.046619795 0.27723208 -0.2848731 0.13660637 0.09352297 -0.16150953
0.23800866 -0.092443034 0.007622184 0.0389257 -0.029867172 -0.16246593 0.07742699 -0.031509217
-0.13714282 -0.22425266 0.15437421 -0.2313682 0.03874886 0.16460365 0.008429978 0.12802108
-0.2314219 -0.06789262 0.05724987 0.1760826 -0.12509839 -0.16701946 -0.11249001 0.24356143
-0.16410342 0.23597056 -0.19984686 -0.16446216 -0.05386601 0.120026425 -0.21239367 0.14058557
-0.0010746584 -0.050028816 -0.008046675 -0.2973976 0.12817663 -0.00026382128 0.11724114 0.13789107
0.11665905 0.039529286 -0.17608298 0.22318709 0.05845932 -0.22622347 -0.12517555 0.2818797
0.046702612 -0.1428398 0.16620708 -0.14467503 -0.1419391 0.28676218 0.21599856 -0.038952712
0.24064755 0.10573722 0.24130732 0.13376068 -0.019149974 0.23150565 -0.037930526 0.066881746
0.08608176 -0.22464773 -0.18177064 0.063341945 0.06266755 -0.12223656 -0.26580098 -0.15235175
0.064814486 0.16821668 0.1624475 0.09877353 -0.03153692 0.15981282 -0.10655205 -0.12917009
0.13104798 -0.18158987 0.09857941 0.18365276 0.2916008 0.14934711 0.029708 0.041591007
-0.17668541 -0.1896612 -0.124256864 0.25602853 -0.019120932 -0.19361201 0.292634 -0.24016215
0.19510606 -0.07999977 0.16607666 0.001961425 0.01971452 -0.20677902 -0.029159138 -0.1524679
0.24903868 0.023972308 -0.33162057 0.2798916 -0.118974 0.16125831 0.007825808 -0.2042829
0.20250042 0.065779485 0.28019777 -0.2201819 -0.07549156 0.07031847 -0.03242067 -0.23652178
-0.20721993 0.18098089 0.24813618 0.25782356 -0.21461016 0.083018176 -0.23489107 0.14905067
0.07018719 0.27126133 -0.27792042 0.100458354 -0.3100766 0.2535139 0.26043996 0.19091715
-0.0068316073 0.21909885 0.10018819 0.25685453 -0.09712353 0.036378153 -0.02307916 0.19156936
0.20311141 -0.010318395 0.09390032 0.3069711 -0.052838504 0.31196555 -0.24930722 0.07233904
0.16984923 0.07393483 0.03432394 0.045315467 -0.12164906 0.10153089 0.2719667 0.20311488
-0.19673099 0.09586015 -0.072507426 -0.1664156 0.035562377 0.14482045 -0.24881217 -0.08148896
0.19898124 0.20290454 -0.09622144 -0.085415676 -0.11110114 0.23589662 0.042141043 -0.13255176
0.108016364 0.15091836 0.1070353 0.23729636 -0.21851465 0.050021846 0.111050546 0.029202158
00000000: 93a0 9fbe 735b 9fbe f4ba 0d3d fb9d da3b
00000010: 47b5 d1bd 860e e13d d01d ecbd dce7 803e
00000020: f1de 623e 1b08 16bd b186 033e 5910 3abd
00000030: bd9d 48be baa7 403e 06af dabd fd96 64be
00000040: 02a5 f33d 4b91 963c 49e0 05be 8500 d5bd
00000050: e2d0 bd3d 1145 5bbe 09b1 833e ef9c ed3d
00000060: f961 a2b9 34b5 743e 6c10 603c 7c23 abbc
00000070: b003 0b3c 76e8 e3bd 45e4 b93b 950c 52bd
00000080: 1136 83be 4edf a6bd b803 13be e436 903e
00000090: 202b 8cbe 84fb f03d b3e5 eabc 2c2f 43bd
000000a0: bdbd 33be 27d4 0d3e fb0c 623e a33f cfbd
000000b0: f6f9 133d bdaa 903d 17dc be3d f2f1 1f3e
000000c0: 7bc0 e6bd 6605 93be d6e2 fa3c d3cb 70be
000000d0: 266f 16bd 7b68 293e dde0 f4bd e7cd 9abe
000000e0: 5742 c73d c4af 3d3d fb56 2c3e f8e0 813e
000000f0: cb00 0bbe 441e 41be ea55 dd3d 8e8d 14be
00000100: d7c9 943e c5a9 18be 66f4 3e3d 5df1 8d3e
00000110: e3da 91be 8ae2 0b3e f988 bf3d c162 25be
00000120: 8bb8 733e c652 bdbd 84c3 f93b 8e70 1f3d
00000130: 00ac f4bc 785d 26be 0b92 9e3d cf0f 01bd
00000140: 2b6f 0cbe 7da2 65be 4614 1e3e c9eb 6cbe
00000150: 20b7 1e3d dc8d 283e e41d 0a3c f517 033e
00000160: ddf9 6cbe 490b 8bbd d77e 6a3d ff4e 343e
00000170: cb19 00be 2607 2bbe 2a61 e6bd 2b68 793e
00000180: ba0a 28be 44a2 713e a8a4 4cbe c568 28be
00000190: 9ba2 5cbd 6ad0 f53d ba7d 59be aaf5 0f3e
000001a0: 8ddb 8cba 04eb 4cbd 33d6 03bc 8044 98be
000001b0: bc40 033e 7e51 8ab9 1f1c f03d 5133 0d3e
000001c0: f1ea ee3d 76e9 213d 194f 34be 288b 643e
000001d0: 0a73 6f3d 20a7 67be 052e 00be 8952 903e
000001e0: 3d4b 3f3d 9944 12be 3032 2a3e b125 14be
000001f0: 7c58 11be 7ed2 923e ba2e 5d3e e18c 1fbd
00000200: 506c 763e c18c d83d 4419 773e 8ff8 083e
00000210: 68e0 9cbc d10f 6d3e 0a5d 1bbd 4cf9 883d
00000220: a24b b03d 0e0a 66be 1522 3abe 6cb9 813d
00000230: d857 803d 2957 fabd 1117 88be 1902 1cbe
00000240: 75bd 843d fe40 2c3e a358 263e c749 ca3d
00000250: dc2c 01bd f9a5 233e f637 dabd 2a45 04be
00000260: 7131 063e b2f2 39be 00e4 c93d 780f 3c3e
00000270: b34c 953e 73ee 183e 315e f33c 555b 2a3d
00000280: 05ed 34be 8c36 42be 627a febd 2c16 833e
00000290: 80a3 9cbc 3a42 46be 20d4 953e 11ed 75be
000002a0: e2c9 473e ebd6 a3bd 0010 2a3e 408b 003b
000002b0: 5880 a13c e1bd 53be 25df eebc 8c20 1cbe
000002c0: ff03 7f3e 9361 c43c 2cca a9be f44d 8f3e
000002d0: a4a8 f3bd e620 253e d137 003c 892f 51be
000002e0: 455c 4f3e 65b7 863d 1576 8f3e 5d77 61be
000002f0: 529b 9abd 2103 903d 89cb 04bd c432 72be
00000300: 7631 54be 0e53 393e 6917 7e3e 7301 843e
00000310: c4c2 5bbe 6f05 aa3d 4987 70be bda0 183e
00000320: 4dbe 8f3d c4e2 8a3e 964b 8ebe 1cbd cd3d
00000330: 5cc2 9ebe 93cc 813e 6358 853e c97f 433e
00000340: addb dfbb 735b 603e 772f cd3d 7082 833e
00000350: b4e8 c6bd 4201 153d 8210 bdbc c22a 443e
00000360: 70fc 4f3e 7c0e 29bc d04e c03d 512b 9d3e
00000370: 306d 58bd f3b9 9f3e 644a 7fbe 7e26 943d
00000380: f5ec 2d3e 256b 973d 4297 0c3d b69c 393d
00000390: 2423 f9bd 6def cf3d 383f 8b3e 59fd 4f3e
000003a0: d973 49be 5452 c43d c67e 94bd da68 2abe
000003b0: dba9 113d d04b 143e 9ec8 7ebe afe3 a6bd
000003c0: bdc1 4b3e 35c6 4f3e bf0f c5bd 6aee aebd
000003d0: ff88 e3bd e28e 713e 169c 2c3d a6bb 07be
000003e0: af37 dd3d 588a 1a3e 5335 db3d d1fd 723e
000003f0: 4ec2 5fbe b5e3 4c3d 786e e33d 5d39 ef3c

linear1.bias f4 [256]
0.1931966 -0.16213943 -0.279382 0.18115228 -0.16145898 0.28643957 0.18435757 -0.13075686
-0.16365914 -0.26065168 -0.27400377 -0.028157527 -0.24924378 -0.22053723 -0.22985527 0.10242266
-0.16664039 -0.29173094 -0.035232957 -0.18743381 0.14044583 -0.19608913 -0.2384656 0.10509319
-0.108922206 0.08028225 -0.073520586 0.079128586 0.23809648 0.21128877 0.10405569 -0.07999318
-0.18894622 0.17072083 0.060684297 -0.07738621 -0.24377547 -0.08613195 0.19863546 -0.21330775
0.23788665 -0.17906499 -0.16117209 -0.253669 -0.25481075 -0.02777534 0.18955584 -0.16745025
-0.2888444 -0.15306412 -0.27422324 0.25425798 0.20667548 -0.027663011 0.03790485 -0.102792405
-0.1418668 -0.3004405 0.17292708 0.16601011 -0.20622483 -0.21289954 0.081584536 0.23154408
0.07395833 0.14172941 -0.079791985 0.0865383 -0.048964288 -0.208648 0.14305416 -0.18622921
0.072246626 -0.06926812 0.1419385 -0.16620094 -0.05324454 -0.165204 -0.23472013 0.27261278
-0.23237069 -0.1511483 -0.14090921 -0.2988742 0.2349696 -0.095225915 0.23252262 -0.20662503
-0.24478067 -0.2650619 0.020972803 0.08330299 0.218947 0.22144523 -0.27961808 -0.09088992
0.22088127 0.070024475 -0.29984415 0.24171744 0.22767873 -0.18880238 0.0018326172 -0.10811228
0.03846574 -0.17675553 -0.2259863 -0.1224757 0.035630465 0.17993757 0.20180789 -0.110293224
0.051223222 0.1565516 -0.13797474 0.1728049 -0.27467582 -0.08506968 0.048628986 -0.22946659
-0.2788587 0.30516368 -0.049771298 -0.29244813 0.1215233 -0.16487443 -0.2214824 -0.06286438
-0.057182882 -0.2699548 -0.041999042 0.2734715 -0.18360057 -0.22057985 -0.02824347 0.12883672
0.17965975 0.06169469 -0.02353042 0.23815249 -0.22021012 0.18115407 0.13698997 0.008662003
0.05917814 0.055460386 0.07869449 0.13503101 -0.2619882 0.12100449 -0.113512866 0.2798305
0.003806313 -0.28583685 -0.061672658 -0.16889903 0.03526194 0.080740824 -0.20652266 0.12422034
0.13228104 -0.13342863 -0.21320204 -0.083663784 -0.030333996 0.1188165 -0.28049865 0.0613231
-0.053350393 -0.04053278 -0.25666875 -0.09556059 -0.047664978 -0.16233957 -0.1950086 0.04304819
-0.12494149 -0.14044024 -0.21266398 -0.16662666 -0.23406649 -0.22071071 -0.10440388 -0.15713567
-0.09388885 0.092823125 -0.13917834 -0.03685178 -0.1277403 0.23538321 -0.24109945 -0.26425865
-0.15657198 -0.30019727 -0.10290953 -0.08817695 0.028675107 0.015135856 -0.07958811 -0.029207528
-0.27589163 0.03156539 0.16494186 0.15103096 0.21942252 0.07564336 -0.036491685 0.26089734
-0.2565915 0.065911286 0.04884938 -0.22397037 0.16992319 -0.21050367 -0.1316612 -0.08783223
-0.059524536 0.04214994 -0.13791251 -0.112682804 -0.07582527 0.1513712 -0.14832821 0.17117135
0.20533851 -0.08519887 0.11710435 0.24945162 0.10326015 0.32911175 -0.11910081 0.24004386
0.081162125 -0.1826845 0.019039182 0.2135539 0.2418156 0.29569697 0.07163585 0.12518583
-0.056213915 -0.08879334 -0.19774865 0.22218592 -0.06566896 0.2788092 -0.2544986 0.055837683
0.17788824 -0.07075903 -0.14089847 -0.03937371 -0.15872502 0.24427478 0.012267569 -0.21598743
00000000: 54d5 453e e107 26be 280b 8fbe fc7f 393e
00000010: 8155 25be 35a8 923e 3bc8 3c3e 20e5 05be
00000020: 4396 27be 2374 85be 394a 8cbe 9daa e6bc
00000030: c339 7fbe 83d4 61be 2e5f 6bbe f9c2 d13d
00000040: c7a3 2abe c25d 95be 6f50 10bd a6ee 3fbe
00000050: 08d1 0f3e 97cb 48be 5430 74be 193b d73d
00000060: 9b12 dfbd 056b a43d f691 96bd 2b0e a23d
00000070: 90cf 733e 155c 583e 261b d53d 77d3 a3bd
00000080: 1e7b 41be 71d1 2e3e 1990 783d a97c 9ebd
00000090: 47a0 79be f365 b0bd 1867 4b3e 596d 5abe
000000a0: 8f98 733e d05c 37be 4c0a 25be e7e0 81be
000000b0: 8e76 82be 1c89 e3bc ed1a 423e 1478 2bbe
000000c0: 6ae3 93be d7bc 1cbe fd66 8cbe 1a2e 823e
000000d0: bda2 533e 8a9d e2bc 1e42 1b3d d384 d2bd
000000e0: 8845 11be 56d3 99be cc13 313e 8efe 293e
000000f0: 9a2c 53be 5602 5abe cb15 a73d e419 6d3e
00000100: 7777 973d 8421 113e fb69 a3bd fe3a b13d
00000110: c78e 48bd d2a7 55be ca7c 123e dfb2 3ebe
00000120: 0af6 933d 72dc 8dbd 5358 113e 9430 2abe
00000130: f216 5abd 3d2b 29be 795a 70be e793 8b3e
00000140: 95f2 6dbe 9fc6 1abe 814a 10be 0a06 99be
00000150: df9b 703e ce05 c3bd 691a 6e3e 8395 53be
00000160: c9a7 7abe 31b6 87be 28cf ab3c c29a aa3d
00000170: a433 603e 8ac2 623e 1a2a 8fbe 7f24 babd
00000180: b32e 623e fe68 8f3d 2c85 99be c784 773e
00000190: 9d24 693e 6955 41be 6e34 f03a f969 ddbd
000001a0: 408e 1d3d 67ff 34be f468 67be 8ad4 fabd
000001b0: 40f1 113d 8e41 383e baa6 4e3e 6ae1 e1bd
000001c0: 71cf 513d 104f 203e 4049 0dbe c5f3 303e
000001d0: 4fa2 8cbe 0339 aebd 302f 473d 4af9 6abe
000001e0: 91c6 8ebe 6a3e 9c3e fddc 4bbd c3bb 95be
000001f0: 35e1 f83d d8d4 28be 48cc 62be 0abf 80bd
00000200: 9938 6abd 8437 8abe 3007 2cbd 7504 8c3e
00000210: ca01 3cbe afdf 61be d95e e7bc c6ed 033e
00000220: baf8 373e 92b3 7c3d dec2 c0bc 3fde 733e
00000230: c37e 61be 7480 393e 1947 0c3e 13eb 0d3c
00000240: c764 723d 6e2a 633d 942a a13d 9245 0a3e
00000250: 5123 86be 34d1 f73d 6f79 e8bd f145 8f3e
00000260: 5673 793b 3559 92be 789c 7cbd def3 2cbe
00000270: d36e 103d 725b a53d ad7a 53be 3c67 fe3d
00000280: ae74 073e 84a1 08be a351 5abe eb57 abbd
00000290: 007f f8bc 1156 f33d 859d 8fbe ee2d 7b3d
000002a0: f185 5abd b305 26bd 166a 83be 45b5 c3bd
000002b0: 5a3c 43bd 583c 26be 56b0 47be 4d53 303d
000002c0: 53e1 ffbd 91cf 0fbe 96c4 59be 2ea0 2abe
000002d0: 20af 6fbe fd01 62be b4d1 d5bd 2ce8 20be
000002e0: cc48 c0bd 0d1a be3d c484 0ebe e4f1 16bd
000002f0: 5ace 02be 4c08 713e c6e2 76be e94c 87be
00000300: 6854 20be 75b3 99be 3bc2 d2bd 1e96 b4bd
00000310: 0fe8 ea3c 62fc 773c 17ff a2bd a044 efbc
00000320: ab41 8dbe b64a 013d 85e6 283e dca7 1a3e
00000330: 4cb0 603e e8ea 9a3d 4e78 15bd 5694 853e
00000340: f65f 83be 7ffc 863d 4a16 483d 7d58 65be
00000350: 5800 2e3e 468e 57be 32d2 06be 62e1 b3bd
00000360: 00d0 73bd 6aa5 2c3d f038 0dbe 3ec6 e6bd
00000370: 474a 9bbd 0d01 1b3e 5ae3 17be 8b47 2f3e
00000380: 4244 523e bf7c aebd 68d4 ef3d 3f70 7f3e
00000390: 0f7a d33d 5681 a83e 20eb f3bd 0fce 753e
000003a0: 5438 a63d a511 3bbe 0ff8 9b3c e0ad 5a3e
000003b0: 829e 773e 9865 973e d1b5 923d b730 003e
000003c0: 9040 66bd 48d9 b5bd 9f7e 4abe b584 633e
000003d0: 737d 86bd 14c0 8e3e a44d 82be 0eb6 643d
000003e0: 5628 363e 1cea 90bd b047 10be 5446 21bd
000003f0: d088 22be 2b23 7a3e eafd 483c cf2b 5dbe

linear2.weight f4 [3, 256]
0.04851184 -0.017982714 0.026428554 0.014894391 -0.012260241 0.028005999 -0.015542998 0.03149395
0.031875506 0.018348072 -0.009809561 -0.051350158 0.054531164 0.031690728 0.030021861 0.00033057906
-0.016846927 -0.008409787 0.05268323 -0.07845248 0.0040870444 0.05305412 0.021340868 0.0061461143
-0.01898932 0.0495866 0.05708176 0.007126319 0.033718765 0.0028929138 -0.040263325 0.01887838
0.0026992897 -0.019466007 -0.039458286 -0.0042101336 0.024558365 -0.049605895 -0.049778882 0.010702971
-0.06685385 0.03450097 -0.0030319616 -0.048715413 -0.0316164 0.0072273025 -0.056927945 0.00087306346
-0.04928954 0.034912694 -0.01751144 -0.044112213 0.023354443 -0.053182285 -0.081423335 0.054008268
0.041071616 -0.031719297 -0.042187847 -0.017064024 -0.028744617 0.08748702 0.024274146 -0.028122498
-0.007089303 0.10391824 -0.016474945 -0.015251528 -0.09642649 -0.05924171 -0.043148436 -0.05026107
-0.00064667064 -0.06319405 0.0096158255 -0.021413902 -0.025470573 -0.03993033 -0.022273304 0.0025286812
0.00626793 0.08043704 -0.024127325 -0.04894335 -0.045166157 -0.052537713 0.024837965 0.028500713
-0.012635582 0.05105802 -0.015855033 0.0036460832 -0.014030637 0.006006263 -0.043083705 -0.009767371
-0.06430333 0.015874835 0.04622311 -0.03199622 -0.037269022 -0.0041431454 -0.008447036 -0.008915375
0.0065430123 -0.040215258 -0.05655464 0.02370793 -0.065884024 0.037328914 -0.010352184 0.033121966
0.029386634 -0.023363393 -0.014933245 -0.009076443 0.026415585 0.035060182 0.016259639 -0.02305563
-0.0015801167 0.030160382 -0.02543365 -0.027678173 -0.012760188 -0.030457916 0.05903652 -0.04359334
0.016028501 -0.04498991 0.0809087 -0.05702058 -0.043623146 0.05026044 -0.014411092 0.021789318
-0.038989652 -0.010452863 -0.07107249 0.015325132 -0.038357228 0.014790099 0.025296398 -0.0037067349
-0.03173378 0.04634851 -0.044384222 -0.056774877 -0.031697433 0.020598011 0.037661064 0.07433272
-0.061789144 -0.05777037 0.025771618 -0.00011102122 -0.004680306 -0.027422467 -0.039291598 -0.06835952
-0.067228004 -0.06974542 0.054698918 -0.044296622 -0.022468386 -0.04927023 -0.0039718617 -0.07882698
0.041799374 -0.033533152 0.05505266 -0.037913404 0.021832392 -0.07407956 0.03562178 0.023284243
-0.0075182877 0.03947904 -0.08566677 -0.025183614 -0.039741423 0.019950734 -0.008117747 -0.047870617
0.023186874 -0.023614433 -0.004706579 -0.012707334 0.035901524 -0.0091059655 0.009731169 0.03511555
0.022755735 -0.0017114603 -0.024377592 0.048941292 0.05546631 -0.001062149 -0.047233112 0.010949117
-0.054942943 -0.066525996 -0.047967542 0.015531861 -0.043623973 -0.005098413 0.0121145975 -0.007992785
0.031002326 0.053365655 0.024847103 0.02731988 -0.08460172 0.017905727 0.0479188 0.010524526
-0.086668886 0.032207474 0.00728169 0.035229754 0.009052599 -0.002174368 -0.054503158 -0.094732486
-0.03496988 -0.009015039 0.0036176464 -0.06751217 -0.023342509 -0.0049964474 -0.07636926 -0.04064642
0.016544031 -0.0103178555 0.009688147 -0.029429095 -0.06314817 -0.03783359 -0.038628068 -0.05293128
0.067971155 -0.05572406 0.07382496 0.007413029 0.07806455 0.05439749 -0.017042343 -0.03240585
-0.07120952 0.043995716 -0.038951937 -0.07332247 -0.0068850745 -0.044674687 0.017490802 -0.06390122
00000000: 5ab4 463d 7c50 93bc b280 d83c 9b07 743c
00000010: 2edf 48bc d66c e53c 0fa8 7ebc cdff 003d
00000020: e48f 023d b24e 963c 48b8 20bc 8b54 52bd
00000030: 125c 5f3d 23ce 013d 68f0 f53c 9251 ad39
00000040: 9102 8abc 34c9 09bc 5fca 573d b2ab a0bd
00000050: 9dec 853b 474f 593d 0bd3 ae3c 5865 c93b
00000060: 7e8f 9bbc 521b 4b3d 90ce 693d e683 e93b
00000070: b01c 0a3d 0a97 3d3b 28eb 24bd d5a6 9a3c
00000080: 91e6 303b 2d77 9fbc 039f 21bd 29f5 89bb
00000090: a02e c93c 8d2f 4bbd f1e4 4bbd 845b 2f3c
000000a0: acea 88bd e450 0d3d e0b3 46bb d089 47bd
000000b0: 3380 01bd 02d3 ec3b 472d 69bd 4cde 643a
000000c0: d4e3 49bd 9d00 0f3d 2774 8fbc 02af 34bd
000000d0: d151 bf3c abd5 59bd 47c1 a6bd c637 5d3d
000000e0: b63a 283d 18ec 01bd 2acd 2cbd dac9 8bbc
000000f0: d579 ebbc 652c b33d 93da c63c 2761 e6bc
00000100: 624d e8bb 16d3 d43d 77f6 86bc 8be1 79bc
00000110: 407b c5bd 6fa7 72bd 6abc 30bd 8dde 4dbd
00000120: 5585 29ba e26b 81bd b28b 1d3c 356c afbc
00000130: aaa7 d0bc fc8d 23bd 8176 b6bc 3bb8 253b
00000140: 3563 cd3b 2dbc a43d aba6 c5bc d278 48bd
00000150: 2600 39bd c931 57bd fd78 cb3c 547a e93c
00000160: 7905 4fbc 3722 513d 6ae2 81bc 20f3 6e3b
00000170: c2e0 65bc 30d0 c43b 8a78 30bd 5307 20bc
00000180: 77b1 83bd f10b 823c 7254 3d3d 780e 03bd
00000190: 67a7 18bd 39c3 87bb 7065 0abc cb11 12bc
000001a0: c466 d63b c1b8 24bd d7a5 67bd 2237 c23c
000001b0: 34ee 86bd 34e6 183d 359c 29bc e6aa 073d
000001c0: 3dbc f03c 9664 bfbc 92aa 74bc 5cb5 14bc
000001d0: 7f65 d83c 449b 0f3d ef32 853c 29df bcbc
000001e0: eb1b cfba e812 f73c 3b5a d0bc 56bd e2bc
000001f0: 1c10 51bc e182 f9bc 47d0 713d ee8e 32bd
00000200: 344e 833c 5747 38bd 76b3 a53d 698e 69bd
00000210: 2fae 32bd e4dd 4d3d 801c 6cbc 837f b23c
00000220: 9db3 1fbd 7c42 2bbc 748e 91bd 4316 7b3c
00000230: 781c 1dbd 2c52 723c 643a cf3c b1ec 72bb
00000240: 48fb 01bd efd7 3d3d 3bcc 35bd c68c 68bd
00000250: 2bd5 01bd 29bd a83c 7d42 1a3d c13b 983d
00000260: 9d16 7dbd a0a0 6cbd 001f d33c 10d4 e8b8
00000270: 415d 99bb 15a5 e0bc 3af0 20bd 1300 8cbd
00000280: d6ae 89bd b0d6 8ebd f90b 603d 6070 35bd
00000290: 9f0f b8bc 95cf 49bd 6426 82bb 0a70 a1bd
000002a0: d235 2b3d 0f5a 09bd e67e 613d 164b 1bbd
000002b0: d8d9 b23c 06b7 97bd 25e8 113d 99be be3c
000002c0: f85b f6bb c6b4 213d 0f72 afbd de4d cebc
000002d0: e7c7 22bd b96f a33c 4c00 05bc fb13 44bd
000002e0: 66f2 bd3c 0e73 c1bc a539 9abb 6c32 50bc
000002f0: 7a0d 133d 3031 15bc 7b6f 1f3c 53d5 0f3d
00000300: 3c6a ba3c 1453 e0ba 84b3 c7bc aa76 483d
00000310: a430 633d ce37 8bba 8277 41bd ed63 333c
00000320: da0b 61bd c83e 88bd 9d79 44bd 5979 7e3c
00000330: 0daf 32bd 9710 a7bb 4e7c 463c 2cf4 02bc
00000340: 97f8 fd3c f295 5a3d 278c cb3c f1cd df3c
00000350: ab43 adbd 08af 923c 8146 443d 106f 2c3c
00000360: 757f b1bd fceb 033d 3e9b ee3b 134d 103d
00000370: 5a51 143c d77f 0ebb b43e 5fbd 1b03 c2bd
00000380: 943c 0fbd d0b3 13bc 0916 6d3b d243 8abd
00000390: ca38 bfbc 3db9 a3bb 7d67 9cbd dc7c 26bd
000003a0: 5987 873c 390c 29bc 09bb 1e3c 4915 f1bc
000003b0: d453 81bd 65f7 1abd 7738 1ebd 78ce 58bd
000003c0: 7634 8b3d e93e 64bd 8a31 973d ffe8 f23b
000003d0: 4fe0 9f3d e7cf 5e3d 629c 8bbc ffbb 04bd
000003e0: 4cd6 91bd da34 343d 118c 1fbd 172a 96bd
000003f0: 319c e1bb cefc 36bd df48 8f3c a5de 82bd

linear2.bias f4 [3]
-0.052030694 -0.07197241 -0.053900294
00000000: 231e 55bd 4566 93bd 8ec6 5cbd
