src/model.pth (torch, 17216 bytes, 4 tensors)

linear1.weight f4 [256, 11]
00000000: 243a c5bd 9746 d8be 4bbe 4bbe a8f3 c73e
00000010: a34e 8d3e 3235 893e a4f2 d73e d08b 11be
00000020: a97b edbe 8646 713e aef6 033e 1a02 853b
00000030: 7828 b93e bc94 c0bd e3b6 80be d098 5a3e
00000040: 07b1 8abe bedb bd3e 78c2 57be 9a17 2a3e
00000050: 4d11 ee3e 1dd3 34be 465b db3e 743b 863d
00000060: ec93 d13e 4ec8 5ebe 8afa 04bf 4f32 263d
00000070: 9ad6 1cbd 5874 ae3e 0301 073f 61a0 d8bd
00000080: 0121 ca3d b4d6 573d 9ba4 d73e 1508 9d3d
00000090: 3c85 323d b046 95bd 4d67 26be b802 36be
000000a0: 0b9f f13e 6162 e73e 60d3 903e f6d1 bd3e
000000b0: acdc d53c 8d73 163d 8f4b 10be f70e 94be
000000c0: 20ff 0ebe 16a0 4d3d 4fdd 18be 59b1 d7bd
000000d0: 392d 98bd c848 71be e0ae 96be 4be8 f53d
000000e0: ab7f 2f3e d085 9d3d f60f 08bf 5f8c 61be
000000f0: b210 edbe 352a d73e c46f 3abe 67a3 53bf
00000100: 469f ccbe 94d9 8b3e 1050 dc3e 28a0 f43e
00000110: 4368 3d3e ef90 d6bd 75cf 8fbd b3fd 0ebe
00000120: a62e 47be 2bdd b93e 9760 cf3d 5a12 1d3e
00000130: a16c 143e f5f2 dcbe ae45 3a3f edd1 09bf
00000140: 58cf d73c fdc1 8c3e 889e 26be 1141 16bc
00000150: fdfb 093e 63a1 fc3d 0ac1 52bd 4dcb 9a3c
00000160: 218c eebc cfa9 9abe e433 d83e 6122 fcbd
00000170: e31d fa3d a614 b1bd 0f28 a53d a22a 983e
00000180: a5b5 01be 9e46 d53d eced 3bbe be60 a53e
00000190: a36d b53e 91f2 0f3f 0990 1f3c 4e66 c63c
000001a0: 3bdd 74be b4e4 b2be bd9b bfbd 5040 a4be
000001b0: 261c 3e3e b7d9 093e 6c8a dfbd b858 8e3c
000001c0: 8834 af3d 1af3 1cbc bfa9 11be b373 fa3d
000001d0: d7c3 cdbd 86e3 10be 4e24 39be 95c3 803d
000001e0: 0d18 24be 822a 133d c0f0 a7bd 4192 a83e
000001f0: 4a32 41bd 4733 a4be cab4 a53e c871 b23e
00000200: bcc7 493d abad 653e 4139 f2be f5d6 f7be
00000210: 221b 373d 3c0a 063c 5da1 8d3c 626c f73e
00000220: 371a b13d c0e6 89be 5e91 f23e b2bd a4be
00000230: 8526 6e3e 0fd6 acbe 1f8f 6bbe 79d2 8cbe
00000240: 07ba debd 58de 94be fa98 c23e ad5f 833e
00000250: eeb7 c4be dcc5 abbe 4f81 3abf 4113 09bf
00000260: da85 aa3e f5ad 903e 2369 afbe d8e2 a5be
00000270: 7930 b93e 4a7b 4abd b599 2a3e 1800 023d
00000280: 2c7c 9fbd c458 513e aa40 8c3e c5e3 8b3d
00000290: 144a 45be 9d8d b1bd e26a e23e f471 bbbe
000002a0: 7dfe 82be eac8 c53e c448 943e 90e0 a6be
000002b0: 2e99 a63e 26ad b5be b9e8 04be 13a3 db3c
000002c0: 4265 383f e9ce abbe 598b 8c3e 7808 803e
000002d0: b68d e43d 69be 89be 882a 6a3e 4a00 b5be
000002e0: 8ebd 7aba 4e32 6b3e 5b8c a0be 6cd3 03be
000002f0: 4ca1 4f3e b047 1fbd 3913 133e fa7d f2be
00000300: cefe b2be 4048 8b3e 05dc 7ebe 89fe 003f
00000310: 2867 943e 5e7d c0be b0ed 86bd ce7b a2be
00000320: 0f32 acbe 9512 a23e a64d 51be dc9f 64be
00000330: 3bd1 91be 5230 0ebf b87c 2cbe eedc 5f3c
00000340: 474a 04bf 6527 a93d 2059 d23e 2b28 1bbd
00000350: 1803 88bd fd09 443b ac06 45bd 0ed6 92bd
00000360: 84d1 bc3e f7b0 8c3e a0e2 4d3e e781 953e
00000370: dd69 2b3e 47df e3be 6959 343c a503 733e
00000380: c3d8 dabe 5ae8 6d3e 0aa7 92bd 81ca bbbe
00000390: 219e 973e 5123 8bbe 385d fa3c 906c 10be
000003a0: c22c 94be 92ba a33d fc07 c23d cc46 b4be
000003b0: d67f ce3e 11a5 ac3e 1ec0 4ebf 3f93 09bf
000003c0: 1001 903e 9bb3 463e b428 d73c e352 c7be
000003d0: 6e87 06be bf70 88bd eafe acbe 8d67 273c
000003e0: 3457 bbbe c2bd 61be 177d 9a3e d128 4cbe
000003f0: 1755 ee3d e89b f43e c552 c63d 5d8d 063e
-0.0963023 -0.42241356 -0.1989681 0.39053082 0.27599058 0.26798397 0.42177308 -0.1421349
-0.46383408 0.23562059 0.1288707 0.0040590884 0.36163688 -0.09403369 -0.25139531 0.21347356
-0.27088186 0.37081712 -0.21070278 0.16610566 0.46497574 -0.17658658 0.42843074 0.065543085
0.40933168 -0.21756098 -0.5194479 0.04057532 -0.038290597 0.34073138 0.5273592 -0.10577465
0.09869576 0.05269499 0.42117772 0.07667557 0.043584093 -0.07288873 -0.16250344 -0.17774475
0.47191653 0.45192245 0.28286266 0.3707425 0.026106201 0.03673129 -0.14091323 -0.28917667
-0.1396451 0.050201498 -0.14928173 -0.10531873 -0.074305005 -0.2356292 -0.29430294 0.12007197
0.17138545 0.07691538 -0.53149354 -0.22026204 -0.463018 0.4202439 -0.18206698 -0.8267121
-0.39965266 0.27314436 0.43029833 0.4777844 0.18496804 -0.10476863 -0.07021991 -0.13963966
-0.19451389 0.3630155 0.10125845 0.15339032 0.14494564 -0.43154112 0.7276257 -0.53835946
0.026343986 0.2749175 -0.16271412 -0.0091707865 0.13475032 0.123354696 -0.051453628 0.01889577
-0.029119553 -0.3020768 0.4222709 -0.12311245 0.12212732 -0.086465165 0.08064281 0.29720026
-0.12666948 0.1041386 -0.18352479 0.3230037 0.3543521 0.562295 0.0097389305 0.024218705
-0.23912518 -0.34940112 -0.093558766 -0.32080317 0.18565425 0.13461958 -0.10915074 0.017376289
0.085549414 -0.009579444 -0.14224909 0.12229099 -0.10047119 -0.14149293 -0.18080255 0.06287304
-0.160248 0.03592921 -0.08200216 0.32924083 -0.0471671 -0.32070372 0.32364494 0.34852433
0.049262747 0.2242953 -0.47309306 -0.48406187 0.04470361 0.008181151 0.017288858 0.48324877
0.08647578 -0.2693386 0.4737653 -0.32175976 0.23256882 -0.33757064 -0.23003815 -0.27504328
-0.10875326 -0.29075885 0.38007337 0.25658932 -0.38421577 -0.33549392 -0.7285356 -0.53545004
0.33305246 0.2825772 -0.342599 -0.3239963 0.36169794 -0.049433984 0.16660197 0.03173837
-0.07787356 0.20444018 0.27393085 0.06830553 -0.1926654 -0.08669589 0.4422217 -0.36610377
-0.25584784 0.38629848 0.28961766 -0.32593203 0.32538742 -0.35483664 -0.12979402 0.026811158
0.7202951 -0.33556297 0.27450064 0.2500646 0.11159842 -0.26903084 0.22867787 -0.35351783
-0.0009564989 0.22968408 -0.31357083 -0.1287362 0.20276374 -0.038886726 0.14362802 -0.47361737
-0.34960026 0.2720356 -0.24888618 0.5038839 0.28984952 -0.37595648 -0.06588304 -0.3173508
-0.33631942 0.31654802 -0.20439777 -0.22326607 -0.28479943 -0.5554248 -0.16844451 0.013663514
-0.5167584 0.08259467 0.41083622 -0.037880104 -0.06641215 0.002991318 -0.048102066 -0.07169734
0.36878598 0.27478763 0.20105982 0.2920067 0.16739602 -0.44506285 0.011007645 0.23731859
-0.427435 0.23233166 -0.071607664 -0.36677936 0.2961283 -0.27175382 0.030562028 -0.14103913
-0.28940398 0.0799457 0.09474179 -0.35210264 0.40331906 0.33719686 -0.807619 -0.53740305
0.2812581 0.19404452 0.026264526 -0.38930425 -0.131376 -0.066621296 -0.33788234 0.0102175595
-0.36589968 -0.22045043 0.3017356 -0.19937445 0.11637323 0.47775197 0.09683756 0.13139863

linear1.bias f4 [256]
00000000: 801d 773f f5d9 4ebe ab03 39be b081 aebe
00000010: 7f5f 80bd 04eb 0b3e 95ab 66be 3c2b 9d3e
00000020: badf 52be 31b5 b2be bcb0 bcbe 0eb1 2a3d
00000030: dd4a 4dbe 5817 f23d c567 a3be 8ff6 edbd
00000040: 4155 0cbe 6b64 3ebd 1584 043e 4466 b0be
00000050: 5256 cb3c 0aa4 8d3e 3ae2 003d 5c5c aabe
00000060: 6941 bebe 5b4e 9cbe e5c0 c9be 08be 6ebb
00000070: fd50 1c3e fa3f fa3d 5296 333d dde6 65be
00000080: 8923 16be 6d52 cfb9 6457 2c3d fc11 473d
00000090: 629c 8a3e 0b41 9fbc 196b 9fbe acf0 523a
000000a0: c9d4 2d3d 202c e2bd 6135 3dbe bf12 b0bd
000000b0: 0771 0fbe 917a 90be 3d0b 6dbd c485 74be
000000c0: 8a6b fbbd 3ada 57be 777d 9b3d 25b3 713d
000000d0: 6695 aabe e6ae c43d 3c07 033e 9b7e 3cbd
000000e0: 1ece 15be 15b8 f8bc a5cd cbba 0415 d7bd
000000f0: 9c67 0cbd 970a e23e 480d 9e3e b166 adbe
00000100: b807 153e 1508 b13c 7f0f bdbd 2022 4dbe
00000110: 006e dd3b 1e27 3dbe a6f4 d43e 315c 43be
00000120: 4d51 5bbe 05f1 41be 2974 1abe 8314 89be
00000130: 0927 513d 4aab b0be 5106 aebd 9d5a c4bd
00000140: ca12 52be f0fe 713d 1d3e 2bbe a08a 663e
00000150: 8131 81be 09ab bd3c 78c7 18bc 9bd3 de3c
00000160: 3d1b 123e 3d4f c1be b316 ac3e 0725 99be
00000170: 6063 38bd 11ed 79bd bc08 babe 30c9 ddbc
00000180: 32b3 4dbd 5c1e 29be d385 02be 9909 0f3c
00000190: 7461 dc3d 8137 7dbd f234 19be 9f2c 5bbc
000001a0: dce6 18bd 7a18 8e3d ce21 55bd 771e 95be
000001b0: ea7a 92bc f701 acbd c105 6cbe 6af8 8abe
000001c0: 2e87 c2bd 22e7 653d c936 0fbe 70a9 93bd
000001d0: f560 c03e 304f 7b3e bbc7 cabe df88 d83c
000001e0: 2528 b93e bfb8 80be a813 31bd 14df 41bd
000001f0: c4ce cf3d 41da a6be 6ec0 9abd 6cc2 65be
00000200: e1a3 5cbd 13f2 483f ef2c 1cbe 8d59 c2bd
00000210: 265c 8f3e 1eee 58bd 62df 81ba 0595 79be
00000220: 3f29 28bd a34a a2be 83de 383e 8963 25bd
00000230: 0019 c2be 244d 983e c3f9 593e 6f0f e43d
00000240: ee14 0abe b7c7 30bd 315f 0bbe d018 97be
00000250: 8da3 30be 1a80 123e 6a32 013d d0b9 ccbd
00000260: 367a 6e3c bdde 83be 5790 bcbc 375b dabd
00000270: 8294 3cbe 758c 5ebe 5c4c d3be b208 8f3e
00000280: 317b f43e 944c 41be 837f 30be f3a0 34be
00000290: 1aca 5bbe 6a5c e93d 1363 aebd 9e36 0dbd
000002a0: 0a9b 003e 2636 5cbd b5bc a43e 9cb0 7dbe
000002b0: c0a8 d2bd 87dc 84be ede9 02be 433f 8bbe
000002c0: 5adc 92bd b4df a6be 4d36 06bc 1404 54be
000002d0: 7c94 ddbb bba2 02bf 399b a0be f451 58bd
000002e0: 8b40 953e 2de6 8ebd 1504 4dbe d178 d33e
000002f0: 1b90 c6bd 65b7 23be a9c0 833e c820 09be
00000300: 68f4 a4be e558 873e 1235 97be 4b5c 98be
00000310: 66d0 88be 8935 90be 77a8 a5bd 7e09 2ebc
00000320: 65a7 9d3c 79f8 d53e 6948 f2bd 2704 4ebe
00000330: d3cf 7fbd e420 6b3e 5d6f 9dbe 4893 b43e
00000340: 2953 16be 7a32 b2be ce6e 67be 898f e63d
00000350: 1884 c4bd dbe3 15be ed71 bd3d 66c8 25be
00000360: 6e3b 0c3e bcf4 943d fc87 a6bd b5b8 653e
00000370: 843a babd 3c06 883e f639 5c3d 38d4 88be
00000380: 2081 603e 2b91 56be 94da cc3e efb8 7dbe
00000390: 7b2f 2abc 8194 9bbe 9b9f f83d b1fe 4dbe
000003a0: 5a47 30be 63e7 123d d00d 9dbc 878d c1bc
000003b0: 0298 7cbe f7b2 9fbd 996c 723d 8c2a 32bd
000003c0: 5680 57be 0ff4 a53e 4113 73be ff44 5dbe
000003d0: f7d1 06bc a1ea 2b3e 259f 28bb 24fe 46be
000003e0: 1368 80be 6f45 acbe 7bd0 38be 196e ccbe
000003f0: b934 3bbe 27ec 0dbc fd25 dfbe da1b b3be
0.9652939 -0.20200332 -0.18067805 -0.3408332 -0.062682144 0.1366387 -0.22526391 0.30697048
-0.20593157 -0.34903863 -0.36853588 0.04167276 -0.2004809 0.11820859 -0.31915107 -0.11619293
-0.13704397 -0.046482485 0.1294101 -0.34453022 0.024821434 0.27664214 0.031465746 -0.3327359
-0.3715928 -0.3052853 -0.3940498 -0.0036429185 0.1526527 0.12219234 0.04384453 -0.22451349
-0.14661993 -0.0003954353 0.04207553 0.048601136 0.27072436 -0.019440195 -0.31136397 0.0008046727
0.042439256 -0.110435724 -0.18477394 -0.085973255 -0.1400796 -0.2821851 -0.057872046 -0.23879153
-0.12276371 -0.2107934 0.0759229 0.059008736 -0.33317107 0.09603672 0.12795728 -0.046019178
-0.14629409 -0.030361215 -0.0015548958 -0.10502055 -0.034278497 0.44148704 0.30869508 -0.3386741
0.14553726 0.0216103 -0.09231471 -0.20032549 0.006757498 -0.18471953 0.41592902 -0.19078137
-0.21417733 -0.18939598 -0.15083374 -0.26773462 0.051062617 -0.34505683 -0.084972985 -0.095875956
-0.2051498 0.059081018 -0.16722913 0.22513819 -0.2523308 0.023152845 -0.009324901 0.02720051
0.14268203 -0.37755767 0.33611068 -0.29911062 -0.045016646 -0.0610171 -0.3633479 -0.027073473
-0.050219722 -0.16515487 -0.12746362 0.008730316 0.10760775 -0.06182051 -0.14961603 -0.013377338
-0.03732954 0.06938262 -0.05203419 -0.29124805 -0.017880876 -0.08398812 -0.2304907 -0.2714265
-0.0949844 0.05612863 -0.13985743 -0.07210052 0.37573972 0.24541926 -0.39605507 0.026432453
0.3616344 -0.2514095 -0.043231636 -0.047331885 0.10146859 -0.3258839 -0.07556234 -0.22437447
-0.053867225 0.78494376 -0.15251516 -0.09489737 0.2799999 -0.05296146 -0.0009908492 -0.24373253
-0.04105496 -0.31697568 0.18053631 -0.040378127 -0.37909698 0.29746354 0.21286683 0.11135756
-0.13484547 -0.043159213 -0.13610531 -0.29511118 -0.1724989 0.1430668 0.03154222 -0.099963784
0.014555505 -0.25755873 -0.023018045 -0.10661929 -0.18416026 -0.21733268 -0.41269195 0.27936321
0.47750238 -0.18876868 -0.17236142 -0.17639522 -0.21463814 0.1139458 -0.08514991 -0.034475915
0.12559143 -0.053762577 0.32175222 -0.24774402 -0.10286093 -0.259495 -0.12784548 -0.27196702
-0.07170935 -0.32592547 -0.008191657 -0.2070468 -0.0067620855 -0.51029557 -0.31368425 -0.05281253
0.29150805 -0.06977496 -0.20021088 0.41303113 -0.09695455 -0.15987928 0.25732926 -0.13391411
-0.32217717 0.2643501 -0.29532677 -0.29757914 -0.26721495 -0.28165844 -0.08088773 -0.01062238
0.019244859 0.41791132 -0.118302174 -0.20118771 -0.062454056 0.22961766 -0.30749026 0.35268617
-0.1468016 -0.34804136 -0.22600862 0.11257846 -0.095955074 -0.14637701 0.09250245 -0.16189727
0.13694546 0.07273242 -0.08131406 0.22433741 -0.09093192 0.26567256 0.053766213 -0.2672441
0.21924257 -0.20953815 0.40010512 -0.24777578 -0.010387297 -0.30386737 0.12139817 -0.20116688
-0.17214718 0.0358652 -0.019171625 -0.023627056 -0.24667361 -0.07797807 0.059185598 -0.043497607
-0.2104505 0.32412764 -0.23737814 -0.21608351 -0.00822877 0.16788723 -0.0025729623 -0.19432884
-0.25079402 -0.33646724 -0.18048279 -0.39927748 -0.18281831 -0.00866226 -0.4358367 -0.34982187

linear2.weight f4 [3, 256]
00000000: 6608 943e 511f 00be a27d 6cbe 2259 f2bd
00000010: 2368 f93b f1f9 bf3e 047d 03bd f15d 843e
00000020: 9c3c 12bc e97c 74bd 3d83 033c 40f6 46be
00000030: bab6 14be 8d22 6ebd cd93 873c 13af bcbe
00000040: 75bd aebe 9658 b8be 0fdc e1be fc14 a6bd
00000050: d21b dcbe 1ac1 1e3f 907c 1cbe 2ea6 9abe
00000060: 1f80 eb3b 93f5 f8be 96d4 a03c d93c dcbe
00000070: 8e55 303f fd22 dfbd 02d1 493e aec8 743c
00000080: f56e b03e 520b 323e 628c e13e 4f58 ffbb
00000090: 6d42 dfbd 2a8b 2a3e f873 8b3c a44f ecbd
000000a0: d9ff 94be 2af3 0dbd 941c b9be c90a 213e
000000b0: a542 59bd 545f 54bf e2c2 23bd 1cac 41bd
000000c0: 6277 60be 3847 1abc 8304 8d3e 2bc4 bdbe
000000d0: a020 16bb 425c c2be f28f 26bd 6471 b73e
000000e0: 85b5 92bc f23d 2b3d 587b 173e 4dcc 65be
000000f0: 7cde 913e 0db7 a03e 9014 5cbd f224 c0bd
00000100: f160 f63e 115d bfbd 5a42 06bf 3ce3 4dbe
00000110: d765 aa3e 402a a3bd 20b2 cd3e b220 bdbe
00000120: 0552 86bd 0b84 063d 45ff 9ebe 082e 8bbe
00000130: 8679 7b3e 31e4 133d 9b31 babd 23d0 f73a
00000140: 870f 09bd c705 eb3e a424 dcbe 1f28 a03d
00000150: 56dc 633c 0824 a53e 7e77 b43e 6a84 4e3d
00000160: 285c 0d3e 1d7c 3cbc 405c 523e 5de9 13be
00000170: 2ed2 3bbd 84b3 0bbf c829 f8ba 7297 323e
00000180: 3517 5dbe 7459 c8bd 3945 89bc 89ef 963e
00000190: 64c9 fb3e a407 dfbe dccd 0abd e750 a93d
000001a0: edc4 ff3c dc90 613e c3dd 6bbe ff8f 12be
000001b0: 272d edbd 8e80 673e 7bc1 91bd 6a33 3dbe
000001c0: fad6 9abe 2227 6f3e 1c1c 1bbe a269 a83d
000001d0: 9056 163e 6abc 543e ac9c 0abc 258e 923e
000001e0: 5a17 123e 242d 30bb c34d c7bc 2f2a dabc
000001f0: 8fc7 aa3e e646 babe f49b 8dbe b800 e8bd
00000200: ed30 2f3d 30db f43e 8881 73bc 115f 80bd
00000210: 7b34 d33e 62c3 f9bd 32e9 393e ac8f 79bd
00000220: f14e babb f2bc cdbd 778d 0c3f f135 6f3e
00000230: 9439 07bc d2af 1e3e d707 b23e 15b6 1dbf
00000240: 24f7 f2bb 5224 663d 55c4 86be 3707 80bd
00000250: 31f8 0cbe eca3 75be 708a 263e 8561 3dbe
00000260: b7b7 1e3d 379a 41bd abc2 d63d af91 08bf
00000270: 2205 ccbe 3f58 31bd 7037 13be d3d7 fa3d
00000280: e0ad 4c3e 290d aebb 75c9 efbc 7392 48be
00000290: 9849 eebe 9e38 7b3d 7745 923d fc52 c13d
000002a0: cc13 9dbd b309 adbd 2fba b53e e93f e1be
000002b0: e54f 75bd 6324 b6be 692e 13bf ea32 f5bc
000002c0: 21fb aebc b9e8 25bd 5a28 01bf 61ec aebe
000002d0: 4b1c cd3d af31 adbc f08c cd3d 7411 ba39
000002e0: dd1e 993e 2834 19bd 5c2d 3bbd 7125 853e
000002f0: a1f3 ad3b acad b1bc 48fa e53e f0b3 f4bc
00000300: 0b14 18be 0fbc ca3e f890 e03a 64c3 cabc
00000310: c349 dbbe fc71 ce3c ad6c babd 74d9 5fbd
00000320: e7c3 eabe f9e3 1c3f 47ac 31be aec2 59bb
00000330: 8625 7c3d 0798 883e 4dfe 87be a0ca da3d
00000340: 011c 51bd 02f3 afbd 208e bcbc 2f60 90bd
00000350: 4222 3c3d dee1 cdbb 6815 eebe ec47 653d
00000360: 79cd 40be 61c7 2dbe f42a 2c3e 2d53 343f
00000370: 43d6 023c 0391 ae3d e098 e73c 9b7b 65bd
00000380: 6039 8c3d 0fbf 4dbe ffbf a83e 28d7 6ebd
00000390: d08e 9dbd 0527 743c 0759 a93e 5290 f5bd
000003a0: 7529 e83e 24bd 9ebe 016d a53e ca4a 843b
000003b0: 7225 48bd 98c2 c2bd 15a4 adbb de90 b33d
000003c0: 8872 0fbe 6bc6 9e3e fcba 80be b28d 1bbd
000003d0: f3ea 183d 2b80 b43b a1c7 1dbe 3352 c5bd
000003e0: 2c44 cabe e2d0 ddbd be2e 22be 6245 d63a
000003f0: b6da 9dbd 9075 1abe a25b 9f3b eab7 eebd
0.28912657 -0.12511946 -0.230948 -0.11833407 0.007611291 0.37495378 -0.032101646 0.25852922
-0.008925583 -0.059689436 0.008026895 -0.19429874 -0.1452283 -0.05813842 0.01654997 -0.3685232
-0.3412892 -0.36005086 -0.44113204 -0.08109471 -0.42989975 0.620134 -0.15281892 -0.3020491
0.007186904 -0.48624858 0.019632619 -0.43015173 0.68880546 -0.10895345 0.19708636 0.014940424
0.34459653 0.17387131 0.44052416 -0.0077925096 -0.109013416 0.1665465 0.017023072 -0.11538628
-0.29101446 -0.034655727 -0.36154616 0.1572677 -0.053042073 -0.8295796 -0.039980777 -0.047283277
-0.21920541 -0.009416394 0.27542505 -0.37063727 -0.002290763 -0.37961012 -0.04066462 0.35828698
-0.01790882 0.041807123 0.14793146 -0.22441216 0.28490055 0.31389657 -0.053730547 -0.09382047
0.48120835 -0.09343923 -0.52444994 -0.20106214 0.33280823 -0.07967043 0.4017496 -0.36939007
-0.06558613 0.03284077 -0.3105413 -0.27183557 0.24558076 0.036106292 -0.09091493 0.0018906634
-0.033462074 0.45902845 -0.42996705 0.078201525 0.013907513 0.32254052 0.35247415 0.05041925
0.13804686 -0.0115042 0.20543003 -0.1444449 -0.04585474 -0.54570794 -0.001893335 0.17440584
-0.21590884 -0.09782687 -0.01675664 0.29479626 0.49177086 -0.43560517 -0.03388773 0.08267384
0.031221831 0.22027916 -0.23033814 -0.14312743 -0.11580878 0.22607633 -0.071169816 -0.18476644
-0.3024214 0.23354772 -0.15147442 0.08223273 0.14681458 0.20775 -0.008460205 0.28624073
0.1426672 -0.0026882375 -0.024329072 -0.026631443 0.33355376 -0.36382216 -0.27658045 -0.11328262
0.04277127 0.47823477 -0.014862426 -0.062681325 0.41250977 -0.121954694 0.18155363 -0.06092803
-0.00568568 -0.10045804 0.5490336 0.23360421 -0.008253474 0.15496758 0.34771606 -0.6160596
-0.0074147154 0.05618698 -0.26321664 -0.06251376 -0.13766553 -0.23988312 0.16263747 -0.18494232
0.038749423 -0.04726621 0.10486349 -0.53347296 -0.39847666 -0.04329705 -0.14376616 0.122481965
0.19988203 -0.0053116274 -0.029270867 -0.19587116 -0.46540523 0.06133329 0.071421556 0.09439656
-0.076697916 -0.084491156 0.3549361 -0.43994072 -0.059890646 -0.35574636 -0.5749269 -0.029931504
-0.021359982 -0.040505145 -0.50452197 -0.34164718 0.10015162 -0.021141855 0.10036647 0.00035489688
0.2990636 -0.037403256 -0.045697555 0.26005128 0.005308584 -0.021689259 0.44917512 -0.029870957
-0.14851396 0.39596602 0.0017133048 -0.024751373 -0.42829713 0.025200836 -0.091027595 -0.05465074
-0.45852587 0.6128536 -0.17350875 -0.003322761 0.061559223 0.26678488 -0.26561204 0.10683179
-0.051052097 -0.08591272 -0.02301699 -0.070495956 0.04593111 -0.006283029 -0.46500707 0.055976793
-0.18828382 -0.16970588 0.1681326 0.70439416 0.007985654 0.085237525 0.028271139 -0.056026082
0.06846881 -0.20092414 0.3295898 -0.058310658 -0.07693255 0.014901881 0.33075735 -0.119904175
0.4534413 -0.31003678 0.32309726 0.004037236 -0.048863836 -0.09509772 -0.005299101 0.087678656
-0.14008534 0.31010756 -0.25142658 -0.037976928 0.03733344 0.005508443 -0.15408184 -0.09634819
-0.39505136 -0.10830857 -0.15838143 0.0016347582 -0.077077314 -0.15083909 0.0048632184 -0.116561726

linear2.bias f4 [3]
00000000: 7a2a 933e abd2 943d 1b14 993d
0.28743345 0.07266744 0.07474538
